…
A: 0s102967424/102967424 [==============================] - 0s 0us/step
97.8s 170 Model: "resnet50"
97.8s 171 __________________________________________________________________________________________________
97.8s 172 Layer (type)                Output Shape                 Param #   Connected to
97.8s 173 ==================================================================================================
97.8s 174 input_1 (InputLayer)        [(None, 224, 224, 3)]        0         []
97.8s 175 
97.8s 176 conv1_pad (ZeroPadding2D)   (None, 230, 230, 3)          0         ['input_1[0][0]']
97.8s 177 
97.8s 178 conv1_conv (Conv2D)         (None, 112, 112, 64)         9472      ['conv1_pad[0][0]']
97.9s 179 
97.9s 180 conv1_bn (BatchNormalizati  (None, 112, 112, 64)         256       ['conv1_conv[0][0]']
97.9s 181 on)
97.9s 182 
97.9s 183 conv1_relu (Activation)     (None, 112, 112, 64)         0         ['conv1_bn[0][0]']
97.9s 184 
97.9s 185 pool1_pad (ZeroPadding2D)   (None, 114, 114, 64)         0         ['conv1_relu[0][0]']
97.9s 186 
97.9s 187 pool1_pool (MaxPooling2D)   (None, 56, 56, 64)           0         ['pool1_pad[0][0]']
97.9s 188 
97.9s 189 conv2_block1_1_conv (Conv2  (None, 56, 56, 64)           4160      ['pool1_pool[0][0]']
97.9s 190 D)
97.9s 191 
97.9s 192 conv2_block1_1_bn (BatchNo  (None, 56, 56, 64)           256       ['conv2_block1_1_conv[0][0]']
97.9s 193 rmalization)
97.9s 194 
97.9s 195 conv2_block1_1_relu (Activ  (None, 56, 56, 64)           0         ['conv2_block1_1_bn[0][0]']
97.9s 196 ation)
97.9s 197 
97.9s 198 conv2_block1_2_conv (Conv2  (None, 56, 56, 64)           36928     ['conv2_block1_1_relu[0][0]']
97.9s 199 D)
97.9s 200 
97.9s 201 conv2_block1_2_bn (BatchNo  (None, 56, 56, 64)           256       ['conv2_block1_2_conv[0][0]']
97.9s 202 rmalization)
97.9s 203 
97.9s 204 conv2_block1_2_relu (Activ  (None, 56, 56, 64)           0         ['conv2_block1_2_bn[0][0]']
97.9s 205 ation)
97.9s 206 
97.9s 207 conv2_block1_0_conv (Conv2  (None, 56, 56, 256)          16640     ['pool1_pool[0][0]']
97.9s 208 D)
97.9s 209 
97.9s 210 conv2_block1_3_conv (Conv2  (None, 56, 56, 256)          16640     ['conv2_block1_2_relu[0][0]']
97.9s 211 D)
97.9s 212 
97.9s 213 conv2_block1_0_bn (BatchNo  (None, 56, 56, 256)          1024      ['conv2_block1_0_conv[0][0]']
97.9s 214 rmalization)
97.9s 215 
97.9s 216 conv2_block1_3_bn (BatchNo  (None, 56, 56, 256)          1024      ['conv2_block1_3_conv[0][0]']
97.9s 217 rmalization)
97.9s 218 
97.9s 219 conv2_block1_add (Add)      (None, 56, 56, 256)          0         ['conv2_block1_0_bn[0][0]',
97.9s 220 'conv2_block1_3_bn[0][0]']
97.9s 221 
97.9s 222 conv2_block1_out (Activati  (None, 56, 56, 256)          0         ['conv2_block1_add[0][0]']
97.9s 223 on)
97.9s 224 
97.9s 225 conv2_block2_1_conv (Conv2  (None, 56, 56, 64)           16448     ['conv2_block1_out[0][0]']
97.9s 226 D)
97.9s 227 
97.9s 228 conv2_block2_1_bn (BatchNo  (None, 56, 56, 64)           256       ['conv2_block2_1_conv[0][0]']
97.9s 229 rmalization)
97.9s 230 
97.9s 231 conv2_block2_1_relu (Activ  (None, 56, 56, 64)           0         ['conv2_block2_1_bn[0][0]']
97.9s 232 ation)
97.9s 233 
97.9s 234 conv2_block2_2_conv (Conv2  (None, 56, 56, 64)           36928     ['conv2_block2_1_relu[0][0]']
97.9s 235 D)
97.9s 236 
97.9s 237 conv2_block2_2_bn (BatchNo  (None, 56, 56, 64)           256       ['conv2_block2_2_conv[0][0]']
97.9s 238 rmalization)
97.9s 239 
97.9s 240 conv2_block2_2_relu (Activ  (None, 56, 56, 64)           0         ['conv2_block2_2_bn[0][0]']
97.9s 241 ation)
97.9s 242 
97.9s 243 conv2_block2_3_conv (Conv2  (None, 56, 56, 256)          16640     ['conv2_block2_2_relu[0][0]']
97.9s 244 D)
97.9s 245 
97.9s 246 conv2_block2_3_bn (BatchNo  (None, 56, 56, 256)          1024      ['conv2_block2_3_conv[0][0]']
97.9s 247 rmalization)
97.9s 248 
97.9s 249 conv2_block2_add (Add)      (None, 56, 56, 256)          0         ['conv2_block1_out[0][0]',
97.9s 250 'conv2_block2_3_bn[0][0]']
97.9s 251 
97.9s 252 conv2_block2_out (Activati  (None, 56, 56, 256)          0         ['conv2_block2_add[0][0]']
97.9s 253 on)
97.9s 254 
97.9s 255 conv2_block3_1_conv (Conv2  (None, 56, 56, 64)           16448     ['conv2_block2_out[0][0]']
97.9s 256 D)
97.9s 257 
97.9s 258 conv2_block3_1_bn (BatchNo  (None, 56, 56, 64)           256       ['conv2_block3_1_conv[0][0]']
97.9s 259 rmalization)
97.9s 260 
97.9s 261 conv2_block3_1_relu (Activ  (None, 56, 56, 64)           0         ['conv2_block3_1_bn[0][0]']
97.9s 262 ation)
97.9s 263 
97.9s 264 conv2_block3_2_conv (Conv2  (None, 56, 56, 64)           36928     ['conv2_block3_1_relu[0][0]']
97.9s 265 D)
98.0s 266 
98.0s 267 conv2_block3_2_bn (BatchNo  (None, 56, 56, 64)           256       ['conv2_block3_2_conv[0][0]']
98.0s 268 rmalization)
98.0s 269 
98.0s 270 conv2_block3_2_relu (Activ  (None, 56, 56, 64)           0         ['conv2_block3_2_bn[0][0]']
98.0s 271 ation)
98.0s 272 
98.0s 273 conv2_block3_3_conv (Conv2  (None, 56, 56, 256)          16640     ['conv2_block3_2_relu[0][0]']
98.0s 274 D)
98.0s 275 
98.0s 276 conv2_block3_3_bn (BatchNo  (None, 56, 56, 256)          1024      ['conv2_block3_3_conv[0][0]']
98.0s 277 rmalization)
98.0s 278 
98.0s 279 conv2_block3_add (Add)      (None, 56, 56, 256)          0         ['conv2_block2_out[0][0]',
98.0s 280 'conv2_block3_3_bn[0][0]']
98.0s 281 
98.0s 282 conv2_block3_out (Activati  (None, 56, 56, 256)          0         ['conv2_block3_add[0][0]']
98.0s 283 on)
98.0s 284 
98.0s 285 conv3_block1_1_conv (Conv2  (None, 28, 28, 128)          32896     ['conv2_block3_out[0][0]']
98.0s 286 D)
98.0s 287 
98.0s 288 conv3_block1_1_bn (BatchNo  (None, 28, 28, 128)          512       ['conv3_block1_1_conv[0][0]']
98.0s 289 rmalization)
98.0s 290 
98.0s 291 conv3_block1_1_relu (Activ  (None, 28, 28, 128)          0         ['conv3_block1_1_bn[0][0]']
98.0s 292 ation)
98.0s 293 
98.0s 294 conv3_block1_2_conv (Conv2  (None, 28, 28, 128)          147584    ['conv3_block1_1_relu[0][0]']
98.0s 295 D)
98.0s 296 
98.0s 297 conv3_block1_2_bn (BatchNo  (None, 28, 28, 128)          512       ['conv3_block1_2_conv[0][0]']
98.0s 298 rmalization)
98.0s 299 
98.0s 300 conv3_block1_2_relu (Activ  (None, 28, 28, 128)          0         ['conv3_block1_2_bn[0][0]']
98.0s 301 ation)
98.0s 302 
98.0s 303 conv3_block1_0_conv (Conv2  (None, 28, 28, 512)          131584    ['conv2_block3_out[0][0]']
98.0s 304 D)
98.0s 305 
98.0s 306 conv3_block1_3_conv (Conv2  (None, 28, 28, 512)          66048     ['conv3_block1_2_relu[0][0]']
98.0s 307 D)
98.0s 308 
98.0s 309 conv3_block1_0_bn (BatchNo  (None, 28, 28, 512)          2048      ['conv3_block1_0_conv[0][0]']
98.0s 310 rmalization)
98.0s 311 
98.0s 312 conv3_block1_3_bn (BatchNo  (None, 28, 28, 512)          2048      ['conv3_block1_3_conv[0][0]']
98.0s 313 rmalization)
98.0s 314 
98.0s 315 conv3_block1_add (Add)      (None, 28, 28, 512)          0         ['conv3_block1_0_bn[0][0]',
98.0s 316 'conv3_block1_3_bn[0][0]']
98.0s 317 
98.0s 318 conv3_block1_out (Activati  (None, 28, 28, 512)          0         ['conv3_block1_add[0][0]']
98.0s 319 on)
98.0s 320 
98.0s 321 conv3_block2_1_conv (Conv2  (None, 28, 28, 128)          65664     ['conv3_block1_out[0][0]']
98.0s 322 D)
98.0s 323 
98.0s 324 conv3_block2_1_bn (BatchNo  (None, 28, 28, 128)          512       ['conv3_block2_1_conv[0][0]']
98.0s 325 rmalization)
98.0s 326 
98.0s 327 conv3_block2_1_relu (Activ  (None, 28, 28, 128)          0         ['conv3_block2_1_bn[0][0]']
98.0s 328 ation)
98.0s 329 
98.0s 330 conv3_block2_2_conv (Conv2  (None, 28, 28, 128)          147584    ['conv3_block2_1_relu[0][0]']
98.0s 331 D)
98.0s 332 
98.0s 333 conv3_block2_2_bn (BatchNo  (None, 28, 28, 128)          512       ['conv3_block2_2_conv[0][0]']
98.0s 334 rmalization)
98.0s 335 
98.0s 336 conv3_block2_2_relu (Activ  (None, 28, 28, 128)          0         ['conv3_block2_2_bn[0][0]']
98.0s 337 ation)
98.0s 338 
98.0s 339 conv3_block2_3_conv (Conv2  (None, 28, 28, 512)          66048     ['conv3_block2_2_relu[0][0]']
98.0s 340 D)
98.0s 341 
98.0s 342 conv3_block2_3_bn (BatchNo  (None, 28, 28, 512)          2048      ['conv3_block2_3_conv[0][0]']
98.0s 343 rmalization)
98.0s 344 
98.0s 345 conv3_block2_add (Add)      (None, 28, 28, 512)          0         ['conv3_block1_out[0][0]',
98.0s 346 'conv3_block2_3_bn[0][0]']
98.0s 347 
98.0s 348 conv3_block2_out (Activati  (None, 28, 28, 512)          0         ['conv3_block2_add[0][0]']
98.1s 349 on)
98.1s 350 
98.1s 351 conv3_block3_1_conv (Conv2  (None, 28, 28, 128)          65664     ['conv3_block2_out[0][0]']
98.1s 352 D)
98.1s 353 
98.1s 354 conv3_block3_1_bn (BatchNo  (None, 28, 28, 128)          512       ['conv3_block3_1_conv[0][0]']
98.1s 355 rmalization)
98.1s 356 
98.1s 357 conv3_block3_1_relu (Activ  (None, 28, 28, 128)          0         ['conv3_block3_1_bn[0][0]']
98.1s 358 ation)
98.1s 359 
98.1s 360 conv3_block3_2_conv (Conv2  (None, 28, 28, 128)          147584    ['conv3_block3_1_relu[0][0]']
98.1s 361 D)
98.1s 362 
98.1s 363 conv3_block3_2_bn (BatchNo  (None, 28, 28, 128)          512       ['conv3_block3_2_conv[0][0]']
98.1s 364 rmalization)
98.1s 365 
98.1s 366 conv3_block3_2_relu (Activ  (None, 28, 28, 128)          0         ['conv3_block3_2_bn[0][0]']
98.1s 367 ation)
98.1s 368 
98.1s 369 conv3_block3_3_conv (Conv2  (None, 28, 28, 512)          66048     ['conv3_block3_2_relu[0][0]']
98.1s 370 D)
98.1s 371 
98.1s 372 conv3_block3_3_bn (BatchNo  (None, 28, 28, 512)          2048      ['conv3_block3_3_conv[0][0]']
98.1s 373 rmalization)
98.1s 374 
98.1s 375 conv3_block3_add (Add)      (None, 28, 28, 512)          0         ['conv3_block2_out[0][0]',
98.1s 376 'conv3_block3_3_bn[0][0]']
98.1s 377 
98.1s 378 conv3_block3_out (Activati  (None, 28, 28, 512)          0         ['conv3_block3_add[0][0]']
98.1s 379 on)
98.1s 380 
98.1s 381 conv3_block4_1_conv (Conv2  (None, 28, 28, 128)          65664     ['conv3_block3_out[0][0]']
98.1s 382 D)
98.1s 383 
98.1s 384 conv3_block4_1_bn (BatchNo  (None, 28, 28, 128)          512       ['conv3_block4_1_conv[0][0]']
98.1s 385 rmalization)
98.1s 386 
98.1s 387 conv3_block4_1_relu (Activ  (None, 28, 28, 128)          0         ['conv3_block4_1_bn[0][0]']
98.1s 388 ation)
98.1s 389 
98.1s 390 conv3_block4_2_conv (Conv2  (None, 28, 28, 128)          147584    ['conv3_block4_1_relu[0][0]']
98.1s 391 D)
98.1s 392 
98.1s 393 conv3_block4_2_bn (BatchNo  (None, 28, 28, 128)          512       ['conv3_block4_2_conv[0][0]']
98.1s 394 rmalization)
98.1s 395 
98.1s 396 conv3_block4_2_relu (Activ  (None, 28, 28, 128)          0         ['conv3_block4_2_bn[0][0]']
98.1s 397 ation)
98.1s 398 
98.1s 399 conv3_block4_3_conv (Conv2  (None, 28, 28, 512)          66048     ['conv3_block4_2_relu[0][0]']
98.1s 400 D)
98.1s 401 
98.1s 402 conv3_block4_3_bn (BatchNo  (None, 28, 28, 512)          2048      ['conv3_block4_3_conv[0][0]']
98.1s 403 rmalization)
98.1s 404 
98.1s 405 conv3_block4_add (Add)      (None, 28, 28, 512)          0         ['conv3_block3_out[0][0]',
98.1s 406 'conv3_block4_3_bn[0][0]']
98.1s 407 
98.1s 408 conv3_block4_out (Activati  (None, 28, 28, 512)          0         ['conv3_block4_add[0][0]']
98.1s 409 on)
98.1s 410 
98.1s 411 conv4_block1_1_conv (Conv2  (None, 14, 14, 256)          131328    ['conv3_block4_out[0][0]']
98.1s 412 D)
98.1s 413 
98.1s 414 conv4_block1_1_bn (BatchNo  (None, 14, 14, 256)          1024      ['conv4_block1_1_conv[0][0]']
98.1s 415 rmalization)
98.1s 416 
98.1s 417 conv4_block1_1_relu (Activ  (None, 14, 14, 256)          0         ['conv4_block1_1_bn[0][0]']
98.1s 418 ation)
98.1s 419 
98.1s 420 conv4_block1_2_conv (Conv2  (None, 14, 14, 256)          590080    ['conv4_block1_1_relu[0][0]']
98.1s 421 D)
98.1s 422 
98.1s 423 conv4_block1_2_bn (BatchNo  (None, 14, 14, 256)          1024      ['conv4_block1_2_conv[0][0]']
98.1s 424 rmalization)
98.1s 425 
98.1s 426 conv4_block1_2_relu (Activ  (None, 14, 14, 256)          0         ['conv4_block1_2_bn[0][0]']
98.1s 427 ation)
98.1s 428 
98.1s 429 conv4_block1_0_conv (Conv2  (None, 14, 14, 1024)         525312    ['conv3_block4_out[0][0]']
98.1s 430 D)
98.1s 431 
98.1s 432 conv4_block1_3_conv (Conv2  (None, 14, 14, 1024)         263168    ['conv4_block1_2_relu[0][0]']
98.1s 433 D)
98.1s 434 
98.1s 435 conv4_block1_0_bn (BatchNo  (None, 14, 14, 1024)         4096      ['conv4_block1_0_conv[0][0]']
98.1s 436 rmalization)
98.1s 437 
98.1s 438 conv4_block1_3_bn (BatchNo  (None, 14, 14, 1024)         4096      ['conv4_block1_3_conv[0][0]']
98.1s 439 rmalization)
98.1s 440 
98.1s 441 conv4_block1_add (Add)      (None, 14, 14, 1024)         0         ['conv4_block1_0_bn[0][0]',
98.1s 442 'conv4_block1_3_bn[0][0]']
98.1s 443 
98.1s 444 conv4_block1_out (Activati  (None, 14, 14, 1024)         0         ['conv4_block1_add[0][0]']
98.1s 445 on)
98.1s 446 
98.1s 447 conv4_block2_1_conv (Conv2  (None, 14, 14, 256)          262400    ['conv4_block1_out[0][0]']
98.1s 448 D)
98.2s 449 
98.2s 450 conv4_block2_1_bn (BatchNo  (None, 14, 14, 256)          1024      ['conv4_block2_1_conv[0][0]']
98.2s 451 rmalization)
98.2s 452 
98.2s 453 conv4_block2_1_relu (Activ  (None, 14, 14, 256)          0         ['conv4_block2_1_bn[0][0]']
98.2s 454 ation)
98.2s 455 
98.2s 456 conv4_block2_2_conv (Conv2  (None, 14, 14, 256)          590080    ['conv4_block2_1_relu[0][0]']
98.2s 457 D)
98.2s 458 
98.2s 459 conv4_block2_2_bn (BatchNo  (None, 14, 14, 256)          1024      ['conv4_block2_2_conv[0][0]']
98.2s 460 rmalization)
98.2s 461 
98.2s 462 conv4_block2_2_relu (Activ  (None, 14, 14, 256)          0         ['conv4_block2_2_bn[0][0]']
98.2s 463 ation)
98.2s 464 
98.2s 465 conv4_block2_3_conv (Conv2  (None, 14, 14, 1024)         263168    ['conv4_block2_2_relu[0][0]']
98.2s 466 D)
98.2s 467 
98.2s 468 conv4_block2_3_bn (BatchNo  (None, 14, 14, 1024)         4096      ['conv4_block2_3_conv[0][0]']
98.2s 469 rmalization)
98.2s 470 
98.2s 471 conv4_block2_add (Add)      (None, 14, 14, 1024)         0         ['conv4_block1_out[0][0]',
98.2s 472 'conv4_block2_3_bn[0][0]']
98.2s 473 
98.2s 474 conv4_block2_out (Activati  (None, 14, 14, 1024)         0         ['conv4_block2_add[0][0]']
98.2s 475 on)
98.2s 476 
98.2s 477 conv4_block3_1_conv (Conv2  (None, 14, 14, 256)          262400    ['conv4_block2_out[0][0]']
98.2s 478 D)
98.2s 479 
98.2s 480 conv4_block3_1_bn (BatchNo  (None, 14, 14, 256)          1024      ['conv4_block3_1_conv[0][0]']
98.2s 481 rmalization)
98.2s 482 
98.2s 483 conv4_block3_1_relu (Activ  (None, 14, 14, 256)          0         ['conv4_block3_1_bn[0][0]']
98.2s 484 ation)
98.2s 485 
98.2s 486 conv4_block3_2_conv (Conv2  (None, 14, 14, 256)          590080    ['conv4_block3_1_relu[0][0]']
98.2s 487 D)
98.2s 488 
98.2s 489 conv4_block3_2_bn (BatchNo  (None, 14, 14, 256)          1024      ['conv4_block3_2_conv[0][0]']
98.2s 490 rmalization)
98.2s 491 
98.2s 492 conv4_block3_2_relu (Activ  (None, 14, 14, 256)          0         ['conv4_block3_2_bn[0][0]']
98.2s 493 ation)
98.2s 494 
98.2s 495 conv4_block3_3_conv (Conv2  (None, 14, 14, 1024)         263168    ['conv4_block3_2_relu[0][0]']
98.2s 496 D)
98.2s 497 
98.2s 498 conv4_block3_3_bn (BatchNo  (None, 14, 14, 1024)         4096      ['conv4_block3_3_conv[0][0]']
98.2s 499 rmalization)
98.2s 500 
98.2s 501 conv4_block3_add (Add)      (None, 14, 14, 1024)         0         ['conv4_block2_out[0][0]',
98.2s 502 'conv4_block3_3_bn[0][0]']
98.2s 503 
98.2s 504 conv4_block3_out (Activati  (None, 14, 14, 1024)         0         ['conv4_block3_add[0][0]']
98.2s 505 on)
98.2s 506 
98.2s 507 conv4_block4_1_conv (Conv2  (None, 14, 14, 256)          262400    ['conv4_block3_out[0][0]']
98.2s 508 D)
98.2s 509 
98.2s 510 conv4_block4_1_bn (BatchNo  (None, 14, 14, 256)          1024      ['conv4_block4_1_conv[0][0]']
98.2s 511 rmalization)
98.2s 512 
98.2s 513 conv4_block4_1_relu (Activ  (None, 14, 14, 256)          0         ['conv4_block4_1_bn[0][0]']
98.2s 514 ation)
98.2s 515 
98.2s 516 conv4_block4_2_conv (Conv2  (None, 14, 14, 256)          590080    ['conv4_block4_1_relu[0][0]']
98.2s 517 D)
98.2s 518 
98.2s 519 conv4_block4_2_bn (BatchNo  (None, 14, 14, 256)          1024      ['conv4_block4_2_conv[0][0]']
98.2s 520 rmalization)
98.2s 521 
98.2s 522 conv4_block4_2_relu (Activ  (None, 14, 14, 256)          0         ['conv4_block4_2_bn[0][0]']
98.2s 523 ation)
98.2s 524 
98.2s 525 conv4_block4_3_conv (Conv2  (None, 14, 14, 1024)         263168    ['conv4_block4_2_relu[0][0]']
98.2s 526 D)
98.2s 527 
98.2s 528 conv4_block4_3_bn (BatchNo  (None, 14, 14, 1024)         4096      ['conv4_block4_3_conv[0][0]']
98.2s 529 rmalization)
98.2s 530 
98.2s 531 conv4_block4_add (Add)      (None, 14, 14, 1024)         0         ['conv4_block3_out[0][0]',
98.2s 532 'conv4_block4_3_bn[0][0]']
98.2s 533 
98.2s 534 conv4_block4_out (Activati  (None, 14, 14, 1024)         0         ['conv4_block4_add[0][0]']
98.2s 535 on)
98.2s 536 
98.2s 537 conv4_block5_1_conv (Conv2  (None, 14, 14, 256)          262400    ['conv4_block4_out[0][0]']
98.2s 538 D)
98.2s 539 
98.2s 540 conv4_block5_1_bn (BatchNo  (None, 14, 14, 256)          1024      ['conv4_block5_1_conv[0][0]']
98.2s 541 rmalization)
98.2s 542 
98.3s 543 conv4_block5_1_relu (Activ  (None, 14, 14, 256)          0         ['conv4_block5_1_bn[0][0]']
98.3s 544 ation)
98.3s 545 
98.3s 546 conv4_block5_2_conv (Conv2  (None, 14, 14, 256)          590080    ['conv4_block5_1_relu[0][0]']
98.3s 547 D)
98.3s 548 
98.3s 549 conv4_block5_2_bn (BatchNo  (None, 14, 14, 256)          1024      ['conv4_block5_2_conv[0][0]']
98.3s 550 rmalization)
98.3s 551 
98.3s 552 conv4_block5_2_relu (Activ  (None, 14, 14, 256)          0         ['conv4_block5_2_bn[0][0]']
98.3s 553 ation)
98.3s 554 
98.3s 555 conv4_block5_3_conv (Conv2  (None, 14, 14, 1024)         263168    ['conv4_block5_2_relu[0][0]']
98.3s 556 D)
98.3s 557 
98.3s 558 conv4_block5_3_bn (BatchNo  (None, 14, 14, 1024)         4096      ['conv4_block5_3_conv[0][0]']
98.3s 559 rmalization)
98.3s 560 
98.3s 561 conv4_block5_add (Add)      (None, 14, 14, 1024)         0         ['conv4_block4_out[0][0]',
98.3s 562 'conv4_block5_3_bn[0][0]']
98.3s 563 
98.3s 564 conv4_block5_out (Activati  (None, 14, 14, 1024)         0         ['conv4_block5_add[0][0]']
98.3s 565 on)
98.3s 566 
98.3s 567 conv4_block6_1_conv (Conv2  (None, 14, 14, 256)          262400    ['conv4_block5_out[0][0]']
98.3s 568 D)
98.3s 569 
98.3s 570 conv4_block6_1_bn (BatchNo  (None, 14, 14, 256)          1024      ['conv4_block6_1_conv[0][0]']
98.3s 571 rmalization)
98.3s 572 
98.3s 573 conv4_block6_1_relu (Activ  (None, 14, 14, 256)          0         ['conv4_block6_1_bn[0][0]']
98.3s 574 ation)
98.3s 575 
98.3s 576 conv4_block6_2_conv (Conv2  (None, 14, 14, 256)          590080    ['conv4_block6_1_relu[0][0]']
98.3s 577 D)
98.3s 578 
98.3s 579 conv4_block6_2_bn (BatchNo  (None, 14, 14, 256)          1024      ['conv4_block6_2_conv[0][0]']
98.3s 580 rmalization)
98.3s 581 
98.3s 582 conv4_block6_2_relu (Activ  (None, 14, 14, 256)          0         ['conv4_block6_2_bn[0][0]']
98.3s 583 ation)
98.3s 584 
98.3s 585 conv4_block6_3_conv (Conv2  (None, 14, 14, 1024)         263168    ['conv4_block6_2_relu[0][0]']
98.3s 586 D)
98.3s 587 
98.3s 588 conv4_block6_3_bn (BatchNo  (None, 14, 14, 1024)         4096      ['conv4_block6_3_conv[0][0]']
98.3s 589 rmalization)
98.3s 590 
98.3s 591 conv4_block6_add (Add)      (None, 14, 14, 1024)         0         ['conv4_block5_out[0][0]',
98.3s 592 'conv4_block6_3_bn[0][0]']
98.3s 593 
98.3s 594 conv4_block6_out (Activati  (None, 14, 14, 1024)         0         ['conv4_block6_add[0][0]']
98.3s 595 on)
98.3s 596 
98.3s 597 conv5_block1_1_conv (Conv2  (None, 7, 7, 512)            524800    ['conv4_block6_out[0][0]']
98.3s 598 D)
98.3s 599 
98.3s 600 conv5_block1_1_bn (BatchNo  (None, 7, 7, 512)            2048      ['conv5_block1_1_conv[0][0]']
98.3s 601 rmalization)
98.3s 602 
98.3s 603 conv5_block1_1_relu (Activ  (None, 7, 7, 512)            0         ['conv5_block1_1_bn[0][0]']
98.3s 604 ation)
98.3s 605 
98.3s 606 conv5_block1_2_conv (Conv2  (None, 7, 7, 512)            2359808   ['conv5_block1_1_relu[0][0]']
98.3s 607 D)
98.3s 608 
98.3s 609 conv5_block1_2_bn (BatchNo  (None, 7, 7, 512)            2048      ['conv5_block1_2_conv[0][0]']
98.3s 610 rmalization)
98.3s 611 
98.3s 612 conv5_block1_2_relu (Activ  (None, 7, 7, 512)            0         ['conv5_block1_2_bn[0][0]']
98.3s 613 ation)
98.3s 614 
98.3s 615 conv5_block1_0_conv (Conv2  (None, 7, 7, 2048)           2099200   ['conv4_block6_out[0][0]']
98.3s 616 D)
98.3s 617 
98.3s 618 conv5_block1_3_conv (Conv2  (None, 7, 7, 2048)           1050624   ['conv5_block1_2_relu[0][0]']
98.3s 619 D)
98.3s 620 
98.3s 621 conv5_block1_0_bn (BatchNo  (None, 7, 7, 2048)           8192      ['conv5_block1_0_conv[0][0]']
98.3s 622 rmalization)
98.3s 623 
98.3s 624 conv5_block1_3_bn (BatchNo  (None, 7, 7, 2048)           8192      ['conv5_block1_3_conv[0][0]']
98.3s 625 rmalization)
98.3s 626 
98.3s 627 conv5_block1_add (Add)      (None, 7, 7, 2048)           0         ['conv5_block1_0_bn[0][0]',
98.3s 628 'conv5_block1_3_bn[0][0]']
98.3s 629 
98.3s 630 conv5_block1_out (Activati  (None, 7, 7, 2048)           0         ['conv5_block1_add[0][0]']
98.3s 631 on)
98.3s 632 
98.3s 633 conv5_block2_1_conv (Conv2  (None, 7, 7, 512)            1049088   ['conv5_block1_out[0][0]']
98.3s 634 D)
98.3s 635 
98.3s 636 conv5_block2_1_bn (BatchNo  (None, 7, 7, 512)            2048      ['conv5_block2_1_conv[0][0]']
98.3s 637 rmalization)
98.3s 638 
98.3s 639 conv5_block2_1_relu (Activ  (None, 7, 7, 512)            0         ['conv5_block2_1_bn[0][0]']
98.3s 640 ation)
98.3s 641 
98.3s 642 conv5_block2_2_conv (Conv2  (None, 7, 7, 512)            2359808   ['conv5_block2_1_relu[0][0]']
98.3s 643 D)
98.3s 644 
98.3s 645 conv5_block2_2_bn (BatchNo  (None, 7, 7, 512)            2048      ['conv5_block2_2_conv[0][0]']
98.3s 646 rmalization)
98.3s 647 
98.3s 648 conv5_block2_2_relu (Activ  (None, 7, 7, 512)            0         ['conv5_block2_2_bn[0][0]']
98.3s 649 ation)
98.3s 650 
98.4s 651 conv5_block2_3_conv (Conv2  (None, 7, 7, 2048)           1050624   ['conv5_block2_2_relu[0][0]']
98.4s 652 D)
98.4s 653 
98.4s 654 conv5_block2_3_bn (BatchNo  (None, 7, 7, 2048)           8192      ['conv5_block2_3_conv[0][0]']
98.4s 655 rmalization)
98.4s 656 
98.4s 657 conv5_block2_add (Add)      (None, 7, 7, 2048)           0         ['conv5_block1_out[0][0]',
98.4s 658 'conv5_block2_3_bn[0][0]']
98.4s 659 
98.4s 660 conv5_block2_out (Activati  (None, 7, 7, 2048)           0         ['conv5_block2_add[0][0]']
98.4s 661 on)
98.4s 662 
98.4s 663 conv5_block3_1_conv (Conv2  (None, 7, 7, 512)            1049088   ['conv5_block2_out[0][0]']
98.4s 664 D)
98.4s 665 
98.4s 666 conv5_block3_1_bn (BatchNo  (None, 7, 7, 512)            2048      ['conv5_block3_1_conv[0][0]']
98.4s 667 rmalization)
98.4s 668 
98.4s 669 conv5_block3_1_relu (Activ  (None, 7, 7, 512)            0         ['conv5_block3_1_bn[0][0]']
98.4s 670 ation)
98.4s 671 
98.4s 672 conv5_block3_2_conv (Conv2  (None, 7, 7, 512)            2359808   ['conv5_block3_1_relu[0][0]']
98.4s 673 D)
98.4s 674 
98.4s 675 conv5_block3_2_bn (BatchNo  (None, 7, 7, 512)            2048      ['conv5_block3_2_conv[0][0]']
98.4s 676 rmalization)
98.4s 677 
98.4s 678 conv5_block3_2_relu (Activ  (None, 7, 7, 512)            0         ['conv5_block3_2_bn[0][0]']
98.4s 679 ation)
98.4s 680 
98.4s 681 conv5_block3_3_conv (Conv2  (None, 7, 7, 2048)           1050624   ['conv5_block3_2_relu[0][0]']
98.4s 682 D)
98.4s 683 
98.4s 684 conv5_block3_3_bn (BatchNo  (None, 7, 7, 2048)           8192      ['conv5_block3_3_conv[0][0]']
98.4s 685 rmalization)
98.4s 686 
98.4s 687 conv5_block3_add (Add)      (None, 7, 7, 2048)           0         ['conv5_block2_out[0][0]',
98.4s 688 'conv5_block3_3_bn[0][0]']
98.4s 689 
98.4s 690 conv5_block3_out (Activati  (None, 7, 7, 2048)           0         ['conv5_block3_add[0][0]']
98.4s 691 on)
98.4s 692 
98.4s 693 avg_pool (GlobalAveragePoo  (None, 2048)                 0         ['conv5_block3_out[0][0]']
98.4s 694 ling2D)
98.4s 695 
98.4s 696 predictions (Dense)         (None, 1000)                 2049000   ['avg_pool[0][0]']
98.4s 697 
98.4s 698 ==================================================================================================
98.4s 699 Total params: 25636712 (97.80 MB)
98.4s 700 Trainable params: 25583592 (97.59 MB)
98.4s 701 Non-trainable params: 53120 (207.50 KB)
98.4s 702 __________________________________________________________________________________________________
100.1s 703 1/1 [==============================] - ETA: 0s1/1 [==============================] - 1s 897ms/step
…
1177.3s 8881 1803
1178.9s 8882 31
1218.0s 8883 Model: "model_1"
1218.0s 8884 __________________________________________________________________________________________________
1218.0s 8885 Layer (type)                Output Shape                 Param #   Connected to
1218.0s 8886 ==================================================================================================
1218.0s 8887 input_3 (InputLayer)        [(None, 31)]                 0         []
1218.0s 8888 
1218.0s 8889 input_2 (InputLayer)        [(None, 2048)]               0         []
1218.0s 8890 
1218.0s 8891 embedding (Embedding)       (None, 31, 200)              360600    ['input_3[0][0]']
1218.0s 8892 
1218.0s 8893 dropout (Dropout)           (None, 2048)                 0         ['input_2[0][0]']
1218.0s 8894 
1218.0s 8895 dropout_1 (Dropout)         (None, 31, 200)              0         ['embedding[0][0]']
1218.0s 8896 
1218.0s 8897 dense (Dense)               (None, 256)                  524544    ['dropout[0][0]']
1218.0s 8898 
1218.0s 8899 simple_rnn (SimpleRNN)      (None, 256)                  116992    ['dropout_1[0][0]']
1218.0s 8900 
1218.0s 8901 add (Add)                   (None, 256)                  0         ['dense[0][0]',
1218.0s 8902 'simple_rnn[0][0]']
1218.0s 8903 
1218.0s 8904 dense_1 (Dense)             (None, 256)                  65792     ['add[0][0]']
1218.0s 8905 
1218.0s 8906 dense_2 (Dense)             (None, 1803)                 463371    ['dense_1[0][0]']
1218.0s 8907 
1218.0s 8908 ==================================================================================================
1218.0s 8909 Total params: 1531299 (5.84 MB)
1218.0s 8910 Trainable params: 1531299 (5.84 MB)
1218.0s 8911 Non-trainable params: 0 (0.00 Byte)
1218.0s 8912 __________________________________________________________________________________________________
…
